…
2022-08-07 01:00:52 | INFO :  --- Model config: -------------------------------------------- 
2022-08-07 01:00:52 | INFO : Model: basic_cnn_segm_blank_logsoftmax
2022-08-07 01:00:52 | INFO : Model parameters: {'n_chan_input': 6, 'n_chan_layers': [100, 100, 50, 10], 'n_ch_out': 2, 'n_bins_in': 216, 'n_bins_out': 72, 'a_lrelu': 0.3, 'p_dropout': 0.2}
2022-08-07 01:00:55 | INFO : 
==========================================================================================
Layer (type:depth-idx)                   Output Shape              Param #
==========================================================================================
basic_cnn_segm_blank_logsoftmax          [1, 2, 100, 73]           --
├─LayerNorm: 1-1                         [1, 174, 6, 216]          2,592
├─Sequential: 1-2                        [1, 100, 174, 216]        --
│    └─Conv2d: 2-1                       [1, 100, 174, 216]        135,100
│    └─LeakyReLU: 2-2                    [1, 100, 174, 216]        --
│    └─MaxPool2d: 2-3                    [1, 100, 174, 216]        --
│    └─Dropout: 2-4                      [1, 100, 174, 216]        --
├─Sequential: 1-3                        [1, 100, 174, 72]         --
│    └─Conv2d: 2-5                       [1, 100, 174, 72]         90,100
│    └─LeakyReLU: 2-6                    [1, 100, 174, 72]         --
│    └─MaxPool2d: 2-7                    [1, 100, 174, 72]         --
│    └─Dropout: 2-8                      [1, 100, 174, 72]         --
├─Sequential: 1-4                        [1, 50, 100, 72]          --
│    └─Conv2d: 2-9                       [1, 50, 100, 72]          375,050
│    └─LeakyReLU: 2-10                   [1, 50, 100, 72]          --
│    └─Dropout: 2-11                     [1, 50, 100, 72]          --
├─Sequential: 1-5                        [1, 10, 100, 72]          --
│    └─Conv2d: 2-12                      [1, 10, 100, 72]          510
│    └─LeakyReLU: 2-13                   [1, 10, 100, 72]          --
│    └─Dropout: 2-14                     [1, 10, 100, 72]          --
├─Conv2d: 1-6                            [1, 2, 100, 1]            1,442
├─Conv2d: 1-7                            [1, 2, 100, 72]           22
├─LogSoftmax: 1-8                        [1, 2, 100, 73]           --
==========================================================================================
Total params: 604,816
Trainable params: 604,816
Non-trainable params: 0
Total mult-adds (G): 8.91
==========================================================================================
Input size (MB): 0.90
Forward/backward pass size (MB): 45.47
Params size (MB): 2.42
Estimated Total Size (MB): 48.79
==========================================================================================
…
